weights.npy (npy, 984 bytes, 1 tensors)

array f8 [107]
00000000: 7fe1 f91e 5732 d2bf 1821 1101 2006 d33f
00000010: 73b1 48ce d538 f33f 3e82 9de0 bbc4 0140
00000020: 8bb7 98cb 9420 e73f 9bd6 b9d2 d19f fd3f
00000030: b9f0 0f35 281f c0bf 8198 a286 99c4 e8bf
00000040: 7300 e36a a13c b2bf 2e48 4648 7778 e33f
00000050: 01a7 e380 dc0e f0bf db3a 7224 3c5b fe3f
00000060: 063b cbc5 090c e8bf 87e0 3762 cebf f83f
00000070: 93ea c3e5 8304 fabf 5289 fbc7 64b4 cc3f
00000080: 5084 7974 ff44 b4bf 05ea f19f 76eb d83f
00000090: 7656 7395 855c 0140 bb39 52b1 4ecf db3f
000000a0: 1ae1 f0ce 3efe f93f 9ca7 0d60 2157 d13f
000000b0: 7f44 d537 c4b2 edbf 9a92 9199 c11e ea3f
000000c0: c8c3 d60a 5799 eebf b50e d611 b403 ed3f
000000d0: 2874 29c4 04e4 e3bf 15d2 f0fe 4c5c d2bf
000000e0: b4c0 ef92 cdd8 f03f 314f fa81 111a 943f
000000f0: 8efd 0655 2422 edbf 5ec6 43e1 ddd3 a13f
00000100: 0b30 378f 431d d7bf 34c5 064c 46a4 ee3f
00000110: c60a 2030 aaa7 f3bf 7866 c378 7ab8 d9bf
00000120: 69de 82c3 d1b2 f3bf 3b65 5702 43f7 f4bf
00000130: ed82 4a0b 96c7 f6bf e4ac 9ebb 0a38 f13f
00000140: 8352 7a92 82b5 da3f 4e48 c3fc 8813 e3bf
00000150: 52a7 9823 731e a83f 2d98 a6bc 4342 febf
00000160: c00d 5180 8058 fb3f a51b 807d fa20 edbf
00000170: 5265 765f 864d f6bf 62ae 419d 1690 ed3f
00000180: 652c c9e6 02b0 f93f 0678 fb88 681c f5bf
00000190: cbd7 0ab0 29a5 f43f ab77 8e1f 3bad d7bf
000001a0: 7270 f8cd 256e fabf 72a4 d168 7a35 c4bf
000001b0: 13f6 b71d bbd3 893f 3c8f 49ea 0662 acbf
000001c0: 7135 ff89 3c48 e63f d2a6 7a1f d591 0440
000001d0: 35b7 809a c5c2 a6bf 62eb 48f0 dedf e9bf
000001e0: 557b 9473 f676 f13f 8dd1 3091 29c1 fcbf
000001f0: 85f4 51d5 4a97 ed3f 7c55 4eb3 a858 eabf
00000200: a02a ce7a c4e9 e23f c678 1082 63ac b5bf
00000210: 986a aa6c 564d e13f e10a 4105 e4ac c9bf
00000220: 57fb e120 e5fc e5bf e96a 6d01 9889 c43f
00000230: 5470 b94a ce72 aebf dc66 4311 13ad a63f
00000240: ca32 8f00 38c9 d83f 3359 feae 176a f23f
00000250: 0242 3eaa 7202 bb3f 515e 4c81 8141 e4bf
00000260: 7c91 1556 80e5 bc3f eaac d21a 73d5 d3bf
00000270: 45f7 279e 64b0 e23f 363a 3e98 4703 ee3f
00000280: 4f8b 214a aa52 db3f c808 140f c549 ef3f
00000290: 88d2 9eef 370e f2bf d38b 0de0 7ab9 c5bf
000002a0: 1ecf c03b 43f2 c73f 20a8 3eb0 c16d f3bf
000002b0: 95fb e8fb e867 ffbf 9f2d 2535 8b99 f13f
000002c0: 69d4 ed3b 620f b63f dbd9 cc0e cccf de3f
000002d0: 55bc a296 8ac2 f03f 21f1 e229 d57f f23f
000002e0: d2af 4227 dbc3 c5bf 1ee8 8136 6d3f e73f
000002f0: 3488 a052 3632 de3f 7f0f 1a98 7937 e3bf
00000300: cbd0 565a 8243 ab3f 863c 3d67 35db e9bf
00000310: e366 014b 3a6e d53f e039 7582 d2bc ffbf
00000320: d586 e507 1050 eebf a562 717b fa55 f93f
00000330: b608 ca6c a54f b1bf ddf6 bdfe 32ba e43f
00000340: b0cc e9c0 a68e d2bf c8a7 ac4d 2f8f d2bf
00000350: e529 4ea5 14fd d93f
-0.2843225290776203 0.29724884132566975 1.2013757760970207 2.221061472708498 0.7227272011275415 1.8515184623223948 -0.12595083800250054 -0.7739989881126946
-0.07123764857806396 0.6084553157436454 -1.0036282572495454 1.897274153106699 -0.7514695037042152 1.5468276821757472 -1.626102349777885 0.2242551781155933
-0.07917782395954132 0.38937154407145186 2.170176665861443 0.4345280391361503 1.6245716174726739 0.2709430158635031 -0.9280720797052168 0.8162544249904216
-0.9562182628343345 0.906702074848417 -0.6215843039786977 -0.28688359161904603 1.0529304256161085 0.019630693014348558 -0.9104177151383952 0.034819539783609285
-0.36116112695594954 0.9575530514613662 -1.228433788288997 -0.4018846682862214 -1.2311570775181286 -1.3103666392765507 -1.4237270775849382 1.0761821106814802
0.4173284941146351 -0.59613465659846 0.04710731324696717 -1.8911778802080434 1.709106923329145 -0.9102756930523027 -1.3939269761088622 0.9238389083306624
1.60547151709286 -1.31943562992774 1.2903229595808507 -0.3699481781167104 -1.651891521999485 -0.15788202398406131 0.012610875935020116 -0.055435386752633126
0.6963179297687657 2.57120728104642 -0.04445474158306554 -0.8085779851020158 1.0915436282009143 -1.7971587821494694 0.924718300476926 -0.8233226301260141
0.5910360716382748 -0.08466169286154743 0.540690624463724 -0.20058870560213563 -0.6871209757081073 0.1604490286798275 -0.059469648954035975 0.044289203507742875
0.3872814183676324 1.1509014926610461 0.105506102145462 -0.6329963231427859 0.11287691213289536 -0.3099029313986664 0.5840323533045441 0.9379003499505589
0.4269204830108508 0.977755097818112 -1.1284713134929536 -0.16972289981921893 0.18708076875338348 -1.2142960438309345 -1.9628686752546163 1.0999862743363804
0.08617223704443834 0.48143292851764635 1.0474954494673245 1.1562091480437362 -0.1700395528508794 0.7264925064657779 0.4718147093682348 -0.6005218477953206
0.05324942925236228 -0.8080088631048887 0.3348527653193811 -1.983599195100048 -0.9472732691030737 1.583490831564782 -0.06762155443178383 0.6477293944769503
-0.28995674933612303 -0.2899893053569227 0.40607181685541455
